…
48000/48000 [==============================] - 1s 18us/step - loss: 0.0152 - accuracy: 0.9961 - val_loss: 0.0909 - val_accuracy: 0.9767
Epoch 12/12
48000/48000 [==============================] - 1s 19us/step - loss: 0.0121 - accuracy: 0.9968 - val_loss: 0.0889 - val_accuracy: 0.9784
[0.07330289956132037, 0.979200005531311]

//////////////////////////////////////////Exercise_1.2\\\\\\\\\\\\\\\\\\\\\\\\\\\\\\\\\\\\\\\\\

Model: "WITHOUT DROPOUT"
_________________________________________________________________
Layer (type)                 Output Shape              Param #   
=================================================================
conv2d_1 (Conv2D)            (None, 26, 26, 32)        320       
_________________________________________________________________
conv2d_2 (Conv2D)            (None, 24, 24, 64)        18496     
_________________________________________________________________
max_pooling2d_1 (MaxPooling2 (None, 12, 12, 64)        0         
_________________________________________________________________
flatten_1 (Flatten)          (None, 9216)              0         
_________________________________________________________________
dense_5 (Dense)              (None, 128)               1179776   
_________________________________________________________________
dense_6 (Dense)              (None, 10)                1290      
=================================================================
Total params: 1,199,882
Trainable params: 1,199,882
Non-trainable params: 0
_________________________________________________________________
Train on 48000 samples, validate on 12000 samples
Epoch 1/6
48000/48000 [==============================] - 69s 1ms/step - loss: 0.1256 - accuracy: 0.9605 - val_loss: 0.0521 - val_accuracy: 0.9852
…
48000/48000 [==============================] - 68s 1ms/step - loss: 0.0094 - accuracy: 0.9972 - val_loss: 0.0429 - val_accuracy: 0.9900
Epoch 6/6
48000/48000 [==============================] - 67s 1ms/step - loss: 0.0056 - accuracy: 0.9984 - val_loss: 0.0451 - val_accuracy: 0.9905
[0.035110449821750954, 0.9900000095367432]

//////////////////////////////////////////Exercise_1.2\\\\\\\\\\\\\\\\\\\\\\\\\\\\\\\\\\\\\\\\\

Model: "WITH DROPOUT"
_________________________________________________________________
Layer (type)                 Output Shape              Param #   
=================================================================
conv2d_3 (Conv2D)            (None, 26, 26, 32)        320       
_________________________________________________________________
conv2d_4 (Conv2D)            (None, 24, 24, 64)        18496     
_________________________________________________________________
max_pooling2d_2 (MaxPooling2 (None, 12, 12, 64)        0         
_________________________________________________________________
dropout_1 (Dropout)          (None, 12, 12, 64)        0         
_________________________________________________________________
flatten_2 (Flatten)          (None, 9216)              0         
_________________________________________________________________
dense_7 (Dense)              (None, 128)               1179776   
_________________________________________________________________
dense_8 (Dense)              (None, 10)                1290      
_________________________________________________________________
dropout_2 (Dropout)          (None, 10)                0         
=================================================================
Total params: 1,199,882
Trainable params: 1,199,882
Non-trainable params: 0
_________________________________________________________________
Train on 48000 samples, validate on 12000 samples
Epoch 1/6
48000/48000 [==============================] - 73s 2ms/step - loss: 0.2126 - accuracy: 0.9344 - val_loss: 0.0601 - val_accuracy: 0.9817
…
48000/48000 [==============================] - 72s 2ms/step - loss: 0.0479 - accuracy: 0.9858 - val_loss: 0.0422 - val_accuracy: 0.9892
Epoch 6/6
48000/48000 [==============================] - 72s 2ms/step - loss: 0.0443 - accuracy: 0.9870 - val_loss: 0.0383 - val_accuracy: 0.9894
[0.03189381584525108, 0.9894999861717224]


//////////////////////////////////////////Exercise_2.0\\\\\\\\\\\\\\\\\\\\\\\\\\\\\\\\\\\\\\\\\
Model: "CDCN WITHOUT DROPOUT"
_________________________________________________________________
Layer (type)                 Output Shape              Param #   
=================================================================
conv2d_13 (Conv2D)           (None, 32, 32, 32)        896       
_________________________________________________________________
conv2d_14 (Conv2D)           (None, 30, 30, 32)        9248      
_________________________________________________________________
max_pooling2d_7 (MaxPooling2 (None, 15, 15, 32)        0         
_________________________________________________________________
conv2d_15 (Conv2D)           (None, 15, 15, 32)        9248      
_________________________________________________________________
conv2d_16 (Conv2D)           (None, 13, 13, 32)        9248      
_________________________________________________________________
max_pooling2d_8 (MaxPooling2 (None, 6, 6, 32)          0         
_________________________________________________________________
flatten_5 (Flatten)          (None, 1152)              0         
_________________________________________________________________
dense_13 (Dense)             (None, 512)               590336    
_________________________________________________________________
dense_14 (Dense)             (None, 10)                5130      
=================================================================
Total params: 624,106
Trainable params: 624,106
Non-trainable params: 0
_________________________________________________________________
Epoch 1/20
1563/1563 [==============================] - 86s 2ms/step  - loss: 1.9311 - accuracy: 0.2872 - val_loss: 1.6466 - val_accuracy: 0.4064
Epoch 2/20
1563/1563 [==============================] - 85s 2ms/step - loss: 1.5990 - accuracy: 0.4158 - val_loss: 1.4754 - val_accuracy: 0.4761
…
